4_co_learning/trained_model.pth (torch, 45585 bytes, 14 tensors)

fc1.weight f4 [64, 128]
000000 95 be 35 3d 6a 9d 1d bd 6e 87 e4 bc ac f8 85 3d
       0.044371206 -0.0384802 -0.02789661 0.06541571
000010 79 87 96 bd 14 6d 69 3d 4d 56 be bb a6 6e 74 3d
       -0.07350058 0.05698879 -0.0058086277 0.059675835
000020 76 74 84 3c 5c a1 dc b9 6f 14 f0 3c e1 3c ee 3c
       0.016168814 -0.00042081892 0.029306618 0.029081764
000030 84 cb ae 3c 1b d6 43 bd dc 7d 89 bb a8 93 97 3c
       0.021337278 -0.04781161 -0.004195912 0.018503025
000040 63 77 3d bb ba 86 8d bb cb 79 72 3d dd 4b 80 3c
       -0.0028910271 -0.004319039 0.059198182 0.015661174
000050 42 1b 23 bd d9 c9 64 bd a9 34 89 bc 76 df 0c bd
       -0.039820917 -0.05585656 -0.016748743 -0.034392796
000060 53 ed 56 bc 93 7d 1b bb d1 3e 12 3d 42 b1 6f 3d
       -0.013118106 -0.002372597 0.035704438 0.058518656
000070 28 b2 bb bd 06 42 d0 3c 3b 6f c7 3c 2d 32 b5 3d
       -0.0916484 0.025422107 0.024345031 0.08847461
000080 be ec a5 3d b2 f7 a9 bd 61 31 bc bd f4 50 ca bc
       0.081017956 -0.08299197 -0.09189106 -0.024696805
000090 05 f5 d9 3d 23 d8 1a bc cb 15 1b 3d 45 d2 5f bd
       0.10642437 -0.009450945 0.03786258 -0.054643888
0000a0 db 75 a4 3d 5f 5f 50 bd 65 1a 66 3d 88 cf 03 bc
       0.08030292 -0.050872203 0.056177516 -0.008045085
0000b0 99 61 62 bd b5 87 0a 3d 13 7a 48 bd 71 37 d5 3c
       -0.055268858 0.033820827 -0.048944544 0.026027413
0000c0 c6 eb 8b bc 86 c3 08 bc c8 80 b4 bd 5d ed 50 bd
       -0.017080199 -0.008347398 -0.088136256 -0.051007617
0000d0 16 88 32 3d 81 cb 97 bc b1 b2 c6 3d 68 22 6d 3d
       0.043586813 -0.018529655 0.097020514 0.05789414
0000e0 ba a2 3a bc 6d 7f 6a bd 3e a1 57 3d 82 b2 a8 3c
       -0.011391336 -0.05725043 0.052644007 0.020592932
0000f0 06 ab 73 bd 1e 38 71 3d 2a f4 a2 3d 85 cb b1 3d
       -0.059489273 0.05889141 0.07956727 0.086813964
000100 cc 4a 1e bd ed 61 a6 bc f7 1c 7e bb bb 2d 96 3c
       -0.03864555 -0.020310367 -0.0038774589 0.018332353
000110 99 48 66 bd c4 dc 93 bd f0 ae 1b 3d d6 0b f0 b9
       -0.05622158 -0.07219842 0.03800863 -0.00045785186
000120 d2 ec 82 3d 05 03 6f 3c 3e f8 7d 3c 28 50 ac 3c
       0.06392826 0.014588122 0.01550108 0.021034315
000130 30 13 bc 3c 20 89 fa 3c 6c 99 a5 bd 4c e5 45 3d
       0.022958368 0.030582964 -0.080859035 0.048314378
000140 c2 b3 93 bd 33 36 6a bd da 90 72 bb 86 e2 d1 bc
       -0.072120205 -0.057180595 -0.0037012608 -0.02562071
000150 43 86 73 3d 54 97 30 bc 7e d6 93 bd 4f 21 84 3d
       0.059454214 -0.010778267 -0.072186455 0.064516656
000160 fb 3f cc bb e6 3e 6b 3d 91 82 28 3d 65 a8 92 bd
       -0.006233213 0.05743303 0.041140143 -0.07161025
000170 99 f0 31 3d 10 c1 aa 3c f3 61 74 bd d5 f3 38 bd
       0.043442342 0.020844012 -0.059663724 -0.04515441
000180 b7 1c 8b 3c 13 24 c8 3c b3 61 0d bd 9d 4c eb bc
       0.016981466 0.024431264 -0.034517 -0.028723055
000190 73 f1 c5 3d e8 40 20 bb ae fa 5c 3d 03 d7 1a 3d
       0.096651934 -0.002445275 0.053950004 0.037802707
0001a0 4d 5a 5b bd c3 1e b4 bd d8 4c a0 3d d9 c4 36 3c
       -0.053552914 -0.0879493 0.07827157 0.011155331
0001b0 94 55 8c 3d 48 65 ac 3c 38 5e 2c 3d df 7d c4 3d
       0.0685226 0.021044388 0.04208204 0.095943205
0001c0 f0 d2 8e 3d 93 f5 7a bd 08 59 0b 3d e1 b0 98 3d
       0.06973827 -0.061269354 0.034020454 0.07455612
0001d0 0a 51 83 3d b9 4d 16 3d ad 44 6e bd a6 8f 69 bd
       0.06411941 0.036695216 -0.058170963 -0.05702176
0001e0 b4 63 8c bd e7 3f 8c 3c 3b 32 9d 3d 5f f7 56 bd
       -0.06854954 0.017120315 0.07675596 -0.052482005
0001f0 87 c1 4d 3d dc 2e 85 bd 2d 33 c2 bd ff 87 c3 bc
       0.05023339 -0.06503078 -0.09482417 -0.023868559
000200 72 ea 5a 3d 64 78 a0 3d 28 51 86 bd 52 18 e0 3c
       0.05344624 0.07835463 -0.06558448 0.027355347
000210 d0 cb a8 3d a1 7d 48 3d 53 42 52 3d 1d df 8d 3d
       0.08241999 0.048947934 0.051332783 0.06927321
000220 5f 78 68 3d 5c 64 5d 3c 14 5a 75 bd af 75 8f bd
       0.05675542 0.013512697 -0.05990036 -0.07004868
000230 aa 26 2b bd d6 66 4b bc 20 66 58 bd 5c 8d 11 3d
       -0.04178492 -0.012414655 -0.05283177 0.0355352
000240 19 4c 96 3c 4d b6 08 bd 8f d0 0b 3d 95 92 ca 3c
       0.018346833 -0.03337698 0.034134444 0.024728099
000250 da aa 40 3d a8 1f 88 3d 88 2b fc bc 7c 72 87 3d
       0.047037937 0.06646663 -0.030782476 0.06613633
000260 40 41 1d 3b f7 a4 b3 bb 7c 54 d0 bd 9f dd 53 bd
       0.002399519 -0.005482312 -0.10172364 -0.051725026
000270 ca 0f 63 bd 8e fd 06 bd 64 92 85 3d 98 8c b1 bc
       -0.05543498 -0.032956652 0.065220624 -0.021673486
000280 83 b9 55 bd 00 c3 26 3d 40 ed a9 3c a3 18 80 3d
       -0.05217887 0.04071331 0.020743012 0.06254699
000290 e5 f1 10 bd d9 e6 e9 3c fa 6c f3 bc 96 11 6a bd
       -0.03538694 0.02855246 -0.02971505 -0.057145678
0002a0 c7 bd 9e bd 6b 72 ff bc a4 93 a4 bc a2 84 28 3d
       -0.07751041 -0.031182488 -0.020089932 0.041142114
0002b0 24 62 c1 3b 9c 95 aa 3c 61 4f b2 3d c6 1e ab 3d
       0.005901592 0.020823292 0.087065466 0.08355479
0002c0 2e 5f 75 3d d1 16 77 bb ad 6c 84 bd 24 66 85 3d
       0.059905224 -0.0037702809 -0.06466041 0.065136224
0002d0 b6 4f b6 bc 6b ec a3 bb e0 fc 91 bd 61 9b e0 bc
       -0.022254806 -0.0050025485 -0.0712831 -0.02741784
0002e0 76 86 88 bd 88 85 a6 3d 6b 7d a1 bd 5d 44 9f bd
       -0.066662714 0.08130938 -0.0788525 -0.07776711
0002f0 e6 f1 4e 3b b1 42 3f bd de 73 39 3d 95 2b ab bc
       0.0031577288 -0.04669446 0.045276515 -0.020894805
000300 48 d6 f8 bc 9f 29 35 3b e5 11 80 3d a0 14 81 bd
       -0.030375615 0.0027643216 0.06253413 -0.06302762
000310 53 82 2b 3d 80 94 39 3d 53 ad 86 3d 99 40 4d bd
       0.041872334 0.045307636 0.06576028 -0.050110433
000320 b0 0e eb 3c 6a 55 72 bd d6 e6 92 3d c0 81 03 bd
       0.028693527 -0.05916349 0.07172935 -0.03210616
000330 2e 25 5a 3d e9 13 03 bc a3 75 1a bc 0b 22 25 3b
       0.053258114 -0.008000352 -0.009427461 0.0025197293
000340 bd c2 eb 3b 74 19 36 3d 74 f3 83 3c 59 49 83 3c
       0.0071948455 0.044457868 0.016107298 0.016026186
000350 db 1a 90 bd 6f 58 ab 3d 14 59 93 3d 00 3e 8f 3d
       -0.07036372 0.08366477 0.07194725 0.069942474
000360 fc c0 42 3d 9d f7 6f bd 5f 63 64 bc 80 72 a6 3d
       0.047547325 -0.05858575 -0.013939708 0.08127308
000370 e1 53 58 bd 17 74 91 3d 33 ed 91 bd 55 a2 84 bd
       -0.05281437 0.071022205 -0.0712532 -0.06476275
000380 4d 73 28 3d 82 51 7c bd 79 45 18 bc 70 bf 43 3d
       0.041125584 -0.06160117 -0.009293907 0.04778999
000390 0c 21 9d 3d 36 44 b6 3d 84 67 8a bc b6 9d 8d bd
       0.07672319 0.08899729 -0.016895063 -0.069148466
0003a0 93 6f af 3d cb e0 4d bd 7f 0b 05 bd 37 b0 01 3d
       0.08566203 -0.050263207 -0.032481667 0.031662192
0003b0 27 29 80 bd 97 ab 6d 3d 3a 88 72 3d f9 7d 75 bd
       -0.06257849 0.05802497 0.059211947 -0.05993459
0003c0 c5 c4 9c bd 33 5c 60 bc 37 00 5f 3d f3 80 c0 3a
       -0.07654718 -0.013693857 0.054443564 0.0014686867
0003d0 23 45 30 bd 7e ba b0 bb 4b c8 92 bd 0d ef 86 bd
       -0.043034684 -0.0053933254 -0.07167109 -0.06588564
0003e0 1c 08 67 bd 12 7c 9e 3d 71 ea a3 3d 72 a0 00 bd
       -0.056404218 0.07738508 0.080037005 -0.031403013
0003f0 90 b5 80 3b 0e bf 11 3d bd a2 a1 3b 9a a1 4a bd
       0.003927894 0.035582595 0.00493273 -0.04947052

fc1.bias f4 [64]
000000 57 ef cc bc 0b 22 99 3d 7d fc 8a bd 7c db b6 3d
       -0.02501647 0.07477196 -0.067864396 0.08928582
000010 06 72 d5 3c 32 07 93 bd f3 6e 1d bd b4 e6 87 3c
       0.026055347 -0.07179107 -0.038435888 0.0165895
000020 a2 89 77 3d 3d 35 a9 bc ff cf 87 3d 98 74 0d 3d
       0.06043399 -0.020655269 0.06631469 0.03453502
000030 68 48 49 3d 1e d2 14 bc 27 56 97 bc 8d 27 88 bd
       0.049141318 -0.009083299 -0.018473698 -0.06648169
000040 6f 3b ab bd ed 1a 5e bd 23 3a 32 bd 4c 44 81 3c
       -0.083609454 -0.054224897 -0.043512475 0.015779637
000050 bd 4d 88 3d 42 08 0d 3c 4e c8 62 bc d9 36 cc bc
       0.066554524 0.008607926 -0.013841702 -0.024928497
000060 bf e0 ab 3d ea 6b 80 3d d6 95 9d bd cc 23 55 3d
       0.08392476 0.06270583 -0.076945946 0.05203609
000070 55 68 9f bc 5a 32 59 bd 9c 1c 50 3d a0 b7 5b 3d
       -0.01945893 -0.053026535 0.050808534 0.053641915
000080 84 56 b5 3d c0 9b ab 3a 00 c5 1d 3d bf fe 6b 3c
       0.08854392 0.0013092682 0.038517952 0.014403998
000090 52 f7 87 3d 8b 85 5e bd 1a 58 af bd c2 86 9a 3c
       0.066389695 -0.054326575 -0.08561726 0.018863086
0000a0 41 71 2b 3d 41 c9 25 3d bb 35 39 3d 3e e0 49 bc
       0.041856054 0.040475134 0.045217257 -0.01232153
0000b0 de 84 94 bd 03 56 f0 bc 77 1f c0 bb df 93 87 bd
       -0.07251905 -0.029337889 -0.005863126 -0.06620001
0000c0 92 06 88 3c 59 b7 55 3d 80 32 17 bc 0f 6d 10 3d
       0.016604695 0.052176807 -0.009228349 0.035260256
0000d0 3b 09 2a 3d 3e 12 af 3d 93 62 64 39 97 6b 27 bc
       0.04151271 0.08548401 0.00021780496 -0.0102185225
0000e0 9c 23 d3 3c 9f f4 02 bd 87 08 8a 3d 11 97 b5 3b
       0.025773816 -0.03197157 0.06739908 0.00554169
0000f0 d5 d2 76 bd 01 b1 08 bd 78 3d 0c bd bb d0 4a 3c
       -0.06025966 -0.03337193 -0.03423831 0.012378867

attention.0.weight f4 [1, 64]
000000 91 5f 32 bd 69 7b c7 3d ae 56 c2 3d d4 5f 10 3d
       -0.04354817 0.097403355 0.09489189 0.03524764
000010 b4 cf a9 3b ae 99 0b 3e 56 9b 8f ba f9 1a a0 3d
       0.005182231 0.13632843 -0.0010956328 0.078176446
000020 ea b1 d0 bd a5 94 ac ba bf fb d5 3d b9 6e ca bd
       -0.101901844 -0.0013166858 0.104484074 -0.098844
000030 25 98 c4 bd 79 8b cd bc 74 57 43 be 73 ed f4 3d
       -0.09599332 -0.02509092 -0.1907633 0.11959352
000040 8b 70 89 bd 1d 00 9b 3d 8f 93 31 be 8b 7c ae bd
       -0.06710919 0.07568381 -0.17341445 -0.085198484
000050 8e 2f 5f bd 18 f4 9b 3d 43 61 13 be 4d 54 bd 3c
       -0.05448871 0.076149166 -0.14392571 0.023111487
000060 bb 34 ea 3d 7b 19 03 be 6d 5a 3f be c3 d8 9a 3c
       0.11435839 -0.12802689 -0.18686838 0.018902188
000070 24 e9 15 bc 74 95 a3 bd 76 fe 6e 3e 8d 9b 9b bd
       -0.009149823 -0.0798749 0.23339257 -0.07598028
000080 94 c3 5b 3d 73 5d eb bd 18 74 70 bc f2 1f 2c bd
       0.053653315 -0.114924334 -0.014676116 -0.042022653
000090 e2 7b da bd 63 3e 90 3d f1 61 58 3d 6b fe 34 be
       -0.1066816 0.07043149 0.05282778 -0.17675178
0000a0 6f eb 0d 3e 4d f5 05 be e6 ab 21 be 84 85 ed 3d
       0.13859342 -0.13081856 -0.1578823 0.11597732
0000b0 ee 92 30 3d fe 7c d9 3d 55 04 c8 3c 07 86 54 3c
       0.043108873 0.106195435 0.024416128 0.012971408
0000c0 aa ab a4 bd 3d bc 57 be 54 73 8b bd ec 02 0f 3d
       -0.08040555 -0.21067901 -0.068091065 0.034914896
0000d0 75 43 eb 3d 82 41 74 3d 83 16 c0 3d c2 b9 8d 3d
       0.11487476 0.059632786 0.09379294 0.06920196
0000e0 22 06 a9 3d 63 51 c8 bc 46 75 1b 3d 17 30 f0 bd
       0.08253123 -0.02445287 0.037953638 -0.117279224
0000f0 2a 7b 25 3e 8c 1a 39 3e e6 8c cb 3d 38 d2 85 3d
       0.16160265 0.18076533 0.099389836 0.06534237

classifier.0.weight f4 [5, 64]
000000 52 86 08 3e 59 b6 f4 3c de f8 15 bc c2 c7 44 bd
       0.13332489 0.029872106 -0.009153573 -0.048042066
000010 e9 0a ee bd 8d a7 95 bc fd bc 85 3c 1c d1 00 be
       -0.11623175 -0.018268371 0.016325468 -0.12579769
000020 37 6f 02 be 09 d8 5c bc 42 49 95 3d b4 e9 de 3d
       -0.12737738 -0.013479241 0.072893634 0.10884419
000030 83 79 e1 3d c6 8b 9c 3c 42 de a4 bd cd 61 bc bd
       0.11009505 0.019109618 -0.08050205 -0.091983415
000040 38 6f 23 3d 3e 18 ae 3c 77 b5 90 3d 0c c3 f4 bd
       0.03990099 0.021251794 0.07065862 -0.11951265
000050 c9 02 b7 bd dc 19 61 be 3c 7c 4e 3e 61 b0 f6 bd
       -0.08936078 -0.21982521 0.20164579 -0.1204536
000060 70 74 01 bd 71 b6 14 3e d9 83 a6 3c 0a 51 db bd
       -0.031605184 0.14522721 0.020326542 -0.10708816
000070 42 3c aa bd 22 b5 8d 3c 55 d8 0a 3d be 31 04 3e
       -0.083122745 0.017298285 0.033897717 0.129096
000080 d0 64 93 3d a9 7c 59 bd 31 bf 86 3d dc e9 13 be
       0.07196963 -0.0530974 0.065794356 -0.14444679
000090 53 fd 28 3d 88 a0 fc bd 51 3b 93 3d d3 ca ec bb
       0.041257214 -0.123353064 0.07189048 -0.007226327
0000a0 23 d2 9d be 0c c9 f1 3d 8c 28 06 3e 8b fc dc bb
       -0.30824384 0.11805925 0.13101405 -0.0067439727
0000b0 e9 e2 a7 3c 83 51 3d bc 70 c6 20 3d b4 04 ee 3d
       0.020493941 -0.011555078 0.039251745 0.11621991
0000c0 66 90 3a bd 38 d8 51 3e 69 ec 3c 3c 7f 12 16 bc
       -0.045547865 0.20492637 0.011530974 -0.009159683
0000d0 97 4c c2 bd ce a5 a7 3d e4 4b 1a bc 9a d5 a5 3d
       -0.094872646 0.081859216 -0.009417508 0.08097382
0000e0 49 46 bc bd c6 81 97 3d 90 4c cb 3d aa 29 75 3c
       -0.09193093 0.07397799 0.099267125 0.014963547
0000f0 39 6a 13 3d 98 3b 52 be ae a8 b2 bc 0f 6b b3 bd
       0.035989974 -0.20530546 -0.021808948 -0.08760654
000100 c7 8d cb 3c 8a 23 2d 3d 69 eb c4 bd 2e 45 2b 3d
       0.024847878 0.04227022 -0.096152134 0.04181402
000110 af 13 00 bd 4f a1 db 3d d2 79 a3 3d 36 da 68 3d
       -0.03126877 0.107241265 0.0798222 0.056848727
000120 9e dc 16 3e 70 ad a5 bd 86 18 c4 3d 01 6c 41 bd
       0.14732596 -0.08089721 0.0957499 -0.04722214
000130 df 35 33 bc e6 8f 13 bd de 67 f5 3c 80 8e 01 3e
       -0.010938137 -0.036025904 0.029956754 0.12652016
000140 55 92 e0 3d 64 1d 7b bd 68 a1 a0 3d 89 54 39 bd
       0.109654106 -0.061307326 0.07843286 -0.045246635
000150 e5 0a 01 3b b2 6e ba 3d bb 49 3b be 56 fb 30 bd
       0.0019690332 0.09103145 -0.18289845 -0.043208443
000160 9f ab 5f bd c4 14 24 be 28 9b b9 3c 7e 4e 05 bb
       -0.05460703 -0.16023546 0.022656992 -0.0020340974
000170 d6 50 99 3c a4 17 ca bd a2 3a a2 3d 9f 05 b8 bd
       0.018715303 -0.0986779 0.079213396 -0.08985447
000180 54 c2 d2 bd bc 5d f5 3b a7 33 19 be 80 d2 f3 bc
       -0.102909714 0.0074879806 -0.1496111 -0.02976346
000190 d4 e4 05 be 9e c4 2d 3e 09 8e 0f bd d2 63 33 bd
       -0.13075572 0.16969535 -0.035047565 -0.043796368
0001a0 16 8f 6d 3e 21 a2 be 3d 3e de 23 3b 64 5e 36 bc
       0.23199114 0.093082674 0.0025004293 -0.011130903
0001b0 97 ba af 3c 54 c6 e9 bd 19 ea 3c bd 4d d0 5e 3d
       0.021451278 -0.11414781 -0.04612169 0.05439787
0001c0 03 05 f7 bd e8 c7 3c be de 36 81 3d 46 c3 8e bd
       -0.12061503 -0.18435633 0.06309293 -0.06970839
0001d0 da ca 64 bd 8c ef be bd 54 80 a6 bd 33 55 fd bc
       -0.055857517 -0.09323034 -0.081299454 -0.030924415
0001e0 94 c6 16 3e 44 ef 55 bd bf 54 64 bd 97 a4 dc bc
       0.14724189 -0.052230135 -0.055744883 -0.026933951
0001f0 6e 42 59 bd 99 30 6f 3e 25 48 12 3c ab b5 f2 bd
       -0.053041868 0.23358382 0.008928333 -0.11851057
000200 b0 54 28 bd 48 0d ec 3d 89 f8 cd 3c 41 51 a9 bd
       -0.04109639 0.11525971 0.025142925 -0.08267451
000210 72 2c cf 3d a5 6c a2 bb c6 da 82 3b 28 07 09 be
       0.10115899 -0.004956799 0.003993365 -0.13381636
000220 ad c1 f9 bd 08 40 d3 bd bb 32 1e 3d da 67 a9 3d
       -0.12195144 -0.10314947 0.0386226 0.08271761
000230 0a 63 2c bd 4f 9d 5b 3d 7e 43 04 3e aa 11 e4 3c
       -0.04208664 0.053616818 0.12916371 0.027840454
000240 86 fa 28 3c ed 50 a9 bc 8a 41 64 3d 83 f0 cc 3d
       0.010313636 -0.020668471 0.055726565 0.100068115
000250 04 4a eb 3d 02 4c 29 be 42 60 1f 3e cf 41 83 bd
       0.11488727 -0.16532901 0.15564063 -0.06409036
000260 aa 47 0a 3e 72 68 af bc 57 6f 94 bd a7 9d 61 3d
       0.135039 -0.021412108 -0.07247799 0.05508199
000270 af 4d 1a bd 53 2c be ba 53 96 af bc ff 96 fb 3d
       -0.03767174 -0.0014509059 -0.021433985 0.122846596
000280 e4 8e 0d bd 7f 21 f9 3c ff 18 e2 3c 20 73 98 3c
       -0.0345601 0.03041148 0.02759981 0.018609583
000290 4b b5 18 3e 0f ae c0 bd 67 3d 90 bc 69 13 8f 3d
       0.14912908 -0.09408199 -0.017607404 0.06986124
0002a0 cc 5e 97 bd 20 70 27 3e 94 61 81 3d 15 98 7a 3d
       -0.07391128 0.16351366 0.0631744 0.061180193
0002b0 f0 fd 60 bd 5f 9c 3e 3c 15 45 a5 bd 1d a2 11 3b
       -0.054929674 0.011633961 -0.08069817 0.0022221871
0002c0 ee e4 85 3d dd 0e bc 3d 38 cd e0 3d 4c f9 d9 bb
       0.065378055 0.091825224 0.10976642 -0.006652033
0002d0 23 f8 8c 3d 2e ec e6 bb 6b 6e e2 bd e6 45 36 3d
       0.06883266 -0.007047198 -0.11056217 0.044500254
0002e0 d2 9c a9 bd 73 8d 8e 3d 7e e6 1e bd df ae b7 bd
       -0.08281864 0.06960573 -0.038794033 -0.08968901
0002f0 ad 1e 39 3e 2f f9 47 be 5d cb 2b 3d bc 56 f5 3d
       0.18078108 -0.1952865 0.04194199 0.11979434
000300 ab 8d 45 be 50 30 be bd 26 fb ac 3d 78 ca bb 3d
       -0.19292323 -0.09286559 0.0844634 0.09169477
000310 34 04 ca 3d b8 f9 d7 3c 7b c9 74 3c 1a 92 71 3d
       0.09864083 0.026364192 0.014940615 0.058977224
000320 9b d4 e1 bd 55 9c a2 3c 99 37 c9 bb c4 8a 7b bd
       -0.110268794 0.019849936 -0.006140661 -0.061411634
000330 72 dc e8 3c 82 62 0e 3c 21 31 b6 3d 29 9a 8a bd
       0.028425429 0.008690478 0.08896089 -0.06767685
000340 68 59 e7 bd 44 2c bb 3b af 73 04 bd 33 d7 91 bd
       -0.1129635 0.005712064 -0.032336887 -0.07121124
000350 43 c3 9f bd 30 c9 4a 3e ce 8a 10 bc cc 48 7a bd
       -0.07800915 0.1980331 -0.008822156 -0.06110458
000360 89 85 a1 bd 2e fe ea bd 38 a0 f2 bd 38 1c f2 3b
       -0.07886798 -0.11474262 -0.118469656 0.007388618
000370 4b 81 a3 3c 05 e3 81 bd 07 35 aa 3c 31 dd 6c be
       0.019959113 -0.06342129 0.020777239 -0.23131253
000380 85 95 a5 3d 2b 5f 2f bd 03 b2 2b be 3c de 58 3e
       0.08085159 -0.04281537 -0.16767125 0.21178526
000390 59 b1 9f bd db b9 b0 3d f8 e5 93 3d 9c fe 7f bc
       -0.07797498 0.08629199 0.072215974 -0.015624668
0003a0 b4 40 c6 3d 94 ce 3d be 2a 3d 3d be 35 11 ac bc
       0.0968031 -0.18535835 -0.18480363 -0.021004299
0003b0 5b a3 61 bd 62 49 97 3d fa af eb bd b1 13 d9 3c
       -0.05508743 0.073870435 -0.11508174 0.026498647
0003c0 89 2b 37 3d 65 5d dd bd 67 95 1e bd 9f 17 b4 3d
       0.044719253 -0.10808829 -0.0387167 0.08793568
0003d0 f4 5c b5 bd ae 46 60 bb 2c 4a aa 3d 11 72 37 3d
       -0.0885562 -0.0034221816 0.083149284 0.044786517
0003e0 f9 12 a3 3d b6 8b 38 3d 03 0a c9 bd 61 d0 94 3d
       0.07962603 0.045055114 -0.09816363 0.072663076
0003f0 81 c4 05 be 35 df 2b 3e 24 a0 6b bd 85 ce 65 bd
       -0.13063242 0.16784365 -0.05752577 -0.056105155

classifier.0.bias f4 [5]
000000 f8 08 94 bd 2c 9e b6 3d eb 4e 9d 3d 9c 69 ca bd
       -0.07228273 0.08916888 0.07681068 -0.09883425
000010 f6 87 24 3c
       0.010042181

imgonly_fc.0.weight f4 [1, 5]
000000 f7 06 83 bf 4f c6 23 3f 90 33 01 bf 55 9c 41 3f
       -1.02365 0.6397447 -0.50469303 0.7562917
000010 7b 87 71 3f
       0.9434735

cliclayer.0.weight f4 [64, 10]
000000 7d 6e 59 3e 81 f0 ec 3d e3 a8 9c be bc df 8a 3e
       0.21233554 0.1156931 -0.305976 0.2712382
000010 57 ec 7f be a0 0d 42 3e a3 8d b6 bc aa 0d 21 3e
       -0.249925 0.1895051 -0.022284335 0.15727869
000020 3d f6 f5 bd 82 23 e5 bc 6f ac fd bd dd d1 99 3e
       -0.12009857 -0.027971033 -0.12386405 0.30042925
000030 1b f8 47 be 4e 94 64 3e 7a 79 8f be 2a 15 ab 3d
       -0.19528238 0.22322199 -0.28022367 0.08353646
000040 57 7a 92 be 3a 5b 33 be 88 09 0f 3e e9 53 16 3e
       -0.28608963 -0.17515269 0.1396848 0.14680447
000050 90 43 1a bd da 69 82 be 2b 8d 77 be 55 47 6f 3d
       -0.03766209 -0.25471383 -0.24174945 0.058417637
000060 fb cd 3a 3e 1a 6f fb 3d d8 b3 9f be 7f 0b 19 be
       0.18242638 0.1227705 -0.31191897 -0.14945792
000070 fb 03 06 3e cb 15 61 3e f8 4c 27 3e 78 bc 9d bd
       0.13087456 0.2198097 0.16337955 -0.07701963
000080 4c 09 21 bd 7e 7a e9 bd 54 bf de bd 18 57 56 bd
       -0.039315507 -0.11400317 -0.10876337 -0.052329153
000090 2a 20 dc 3d 23 44 5b bc 6b 07 9e 3d 81 12 95 bc
       0.10748322 -0.013382944 0.077162586 -0.0181973
0000a0 c2 15 60 3e 34 6a 07 be e0 38 43 3d e8 e7 26 bd
       0.218833 -0.13224107 0.047661662 -0.040748507
0000b0 b7 a0 4b be b6 31 af 3c 85 d8 bd 3d c9 bc 76 3d
       -0.19885527 0.021386009 0.092698134 0.060238633
0000c0 8a f3 db 3d ee c7 cb bd 5a 28 97 be e4 87 f9 3d
       0.10739811 -0.09950243 -0.29522973 0.12184122
0000d0 38 c2 3f 3c 81 68 d1 bd 17 92 96 3e 15 45 b6 3d
       0.01170402 -0.10225011 0.29408333 0.08899895
0000e0 7e 36 61 3e dd 64 88 be 5c 7f db 3c 54 b1 bf be
       0.21993443 -0.26639453 0.026794128 -0.37439978
0000f0 5c 11 59 be 74 ee ac 3d c3 cf fd 3d d8 cc 07 3e
       -0.21198028 0.08443919 0.12393143 0.13261735
000100 fe e4 14 3e 9d f4 3c be c4 88 f5 bd 5e 51 3b bd
       0.14540479 -0.18452688 -0.119889766 -0.045731895
000110 85 4f 8e 3c 4b 28 b0 3c 97 91 62 be e0 6d 7f 3e
       0.017371902 0.021503588 -0.2212585 0.24944258
000120 e4 2b a0 be 2b 58 51 3e 60 4e a4 be fb a4 b4 be
       -0.31283486 0.2044379 -0.32091045 -0.3528212
000130 8b ad 30 bd b6 2f 85 3e 94 39 a3 bd f5 3e e6 bd
       -0.043134253 0.26012963 -0.079699665 -0.11242477
000140 0a 1c 99 3e 1b ef a0 3d 74 fe 90 3e 2c 20 1b 3e
       0.29904205 0.07858106 0.28319132 0.15148991
000150 f9 02 b0 bd 9e 9d 0b 3e 86 1e 2b be 8c 68 7c 3e
       -0.08594317 0.13634345 -0.16710863 0.24649256
000160 ca 83 7b bd 0c cc b1 3e ec 40 9f be a5 d3 dc 3d
       -0.06140498 0.34725988 -0.3110422 0.107825555
000170 d6 3e 2d bb 10 b0 ab 3e 97 a6 52 3e bd 48 88 be
       -0.0026435158 0.33532763 0.20571361 -0.26617995
000180 d0 53 88 be 31 a7 26 be d3 15 99 be 9a 93 eb bd
       -0.26626444 -0.16274716 -0.29899463 -0.11502762
000190 27 86 ef bd b1 7f 8a 3d 3a f5 82 3e 97 52 3e be
       -0.116955094 0.067626365 0.25577718 -0.18586193
0001a0 a9 d8 8c be 74 03 00 3e ed 93 80 be 4f ad 8d be
       -0.2750905 0.12501317 -0.25112858 -0.27671286
0001b0 3b ef 78 be a3 42 93 3d 9b 38 9a be 01 66 09 3d
       -0.24310009 0.07190444 -0.30121312 0.033544544
0001c0 01 dd 9e 3e a1 cb 9e 3c 47 5c 5d 3e d9 e0 76 3e
       0.31027988 0.019384207 0.21617232 0.2410921
0001d0 cb 2e 7e be b0 5b 15 3e 68 8c 1f 3e 51 00 9a 3d
       -0.24822538 0.14585757 0.15580904 0.075195916
0001e0 c9 53 c6 be c5 bf 98 3e 55 3a 80 be 4b 9f ac 3e
       -0.38735798 0.2983381 -0.25044504 0.3371528
0001f0 dd ff 9d be 74 dc cb bc 73 90 42 3e 04 a0 c1 bc
       -0.3085927 -0.024885394 0.19000416 -0.023635872
000200 66 64 bc be a2 47 9b be 55 dd 90 3e 55 8a 29 bd
       -0.36795348 -0.3032809 0.28293863 -0.04139169
000210 57 06 4d 3e 62 5a 3b 3b 94 c1 7b 3e db 13 91 bd
       0.2002195 0.0028587808 0.24585563 -0.07083865
000220 12 e4 73 3e 10 b2 2d bc 4e 29 5b 3e b8 8a 8c 3d
       0.2381747 -0.010601535 0.21402475 0.06862396
000230 74 5e a3 3e 7d fc 8b 3e 94 ee 8f be f3 6a 26 3d
       0.31908 0.2734107 -0.28111708 0.04062934
000240 01 09 b2 3d 72 b8 4d bb 5d 5f 22 3e f6 46 64 3e
       0.086931236 -0.0031390456 0.1585669 0.22292694
000250 22 c0 9e bd 83 ff ca 3e 6f f7 4d 3e 2a 3d 16 3e
       -0.0775149 0.39648065 0.2011392 0.1467177
000260 71 b5 57 be cc 63 9a 3e 0c e1 6c 3e 04 28 b1 bb
       -0.21065308 0.30154264 0.23132724 -0.0054063816
000270 99 f0 7f be f2 43 80 bd 1b 2c 60 3e ca e8 5b be
       -0.24994124 -0.062629595 0.21891825 -0.2147552
000280 0a f7 2f 3d e0 f8 43 be 8b ef 99 bd 82 d4 11 3e
       0.042960204 -0.19137907 -0.07516392 0.14241222
000290 db 44 15 3e 66 5d 49 be 67 2f 75 be c4 26 fa 3c
       0.14577048 -0.19664535 -0.23943864 0.030536063
0002a0 1c e1 88 bd 19 d9 96 be d2 51 e0 bc 7d f4 9a be
       -0.06683561 -0.29462507 -0.027382765 -0.30264655
0002b0 8e 84 16 3d da 68 14 3e 20 c7 68 bd 5f 12 96 3d
       0.036747508 0.14493123 -0.056830525 0.07327723
0002c0 03 3a 07 3e c3 4a 04 be d6 4d 9d 3e 74 a8 fc 3d
       0.13205723 -0.12919144 0.30723447 0.123368174
0002d0 1e e2 22 3e 08 bf 45 be 09 9c 6b 3d 0f 24 81 be
       0.1590657 -0.19311154 0.057521854 -0.25222823
0002e0 5a d6 7d bd 4e 35 8d 3d fc 8d 70 be e9 f9 62 be
       -0.061972 0.06894933 -0.23491663 -0.22165646
0002f0 43 9c 73 be c1 d2 34 be 89 e1 55 3e c6 e3 aa 3d
       -0.23790078 -0.17658521 0.20886816 0.083442256
000300 b8 8a 20 be b3 bd f7 3c 8d 53 73 be b1 13 58 be
       -0.15677917 0.030241823 -0.23762341 -0.21101262
000310 bb d3 3a bd 95 6a f0 bd 89 7f ee 3c f2 09 da 3d
       -0.04561208 -0.11739079 0.029113548 0.10646428
000320 d6 88 9b be 72 ad 09 be 35 6b 0d be 24 d7 3a be
       -0.30377835 -0.1344507 -0.13810427 -0.18246132
000330 5c 83 e6 3d 8c 47 86 b9 8d 0a 95 bd a3 81 f8 bd
       0.112555236 -0.00025611778 -0.07277403 -0.12134101
000340 a2 c6 95 3e 17 94 a7 be b1 f3 37 be 8e 7c 8d be
       0.29253107 -0.3273017 -0.17964055 -0.2763409
000350 c0 b9 e0 3d f1 e7 4d be 85 15 2c 3d 27 b8 26 be
       0.10972929 -0.2010801 0.04201271 -0.16281186
000360 3e b0 8f be 0c e0 8f be ad 2b 07 be 83 d9 a9 3d
       -0.2806415 -0.28100622 -0.13200255 0.0829344
000370 a3 3c 63 be bc 10 ac bc f0 78 57 3c 90 5b 91 3d
       -0.221911 -0.021004073 0.013151392 0.07097542
000380 c6 40 2c be db b5 62 be ff 0a 10 3e 26 ef 8b 3d
       -0.16821584 -0.22139685 0.14066695 0.06832723
000390 02 53 57 bc 9e 6f 26 3e 6a b7 49 3e 01 e3 01 3e
       -0.013142349 0.16253516 0.19698873 0.12684251
0003a0 e5 f6 bd 3d bb 2c 17 be 00 bb 79 3e 02 a5 92 bd
       0.09275607 -0.14763157 0.24387741 -0.07160379
0003b0 ff 7d 75 3e 13 a0 17 be 96 e3 8d be 82 90 87 be
       0.23973845 -0.14807157 -0.27712697 -0.26477438
0003c0 51 0b 24 3d 1b 01 fe ba 0e 82 d9 3c 5b 91 8b 3e
       0.040049855 -0.0019378992 0.026551273 0.27259335
0003d0 ab ae 84 be 2d 60 3c 3d e2 e2 ad 3e bc c4 ed bb
       -0.2591451 0.045990158 0.3396216 -0.0072561186
0003e0 83 54 69 be ca 79 bf 3d 63 59 a5 be 68 f2 24 be
       -0.22786145 0.09349401 -0.3229476 -0.16108096
0003f0 ab 01 33 be 68 a9 a6 3e 97 74 f6 3d c0 ca 28 be
       -0.17481105 0.32551122 0.120339565 -0.16483593

cliclayer.0.bias f4 [64]
000000 60 6b b7 3c 22 06 60 be c3 92 5b bd 04 5f ca bd
       0.022390068 -0.2187734 -0.05360676 -0.09881404
000010 be c8 bb 3c 74 79 ae 3e cd 8c a6 3e 46 71 7f 3e
       0.02292287 0.34077036 0.32529297 0.24945554
000020 16 6f 91 be d7 45 b1 3e 0d 3a 50 3e 06 f1 24 be
       -0.28405064 0.34623596 0.20334645 -0.16107568
000030 8c 34 56 3e aa 5f 7e be 4b a9 98 be 7f e5 38 3c
       0.20918483 -0.2484118 -0.2981666 0.011285185
000040 b8 3d 47 3e 6e b4 8c be 2c ce f0 3c cc 9e 33 3d
       0.19457138 -0.27481407 0.029395185 0.043852612
000050 ef b6 ac bc 46 ed 50 3e 31 55 f8 bd bc 03 63 3e
       -0.021083323 0.20403013 -0.12125624 0.22169393
000060 4b 9f fe bd 95 37 aa 3d 6c 15 a7 3d 8b de 33 3d
       -0.124327265 0.08311383 0.08158383 0.043913405
000070 33 77 86 3d 28 a5 3b be 9e 85 2c 3e 28 e2 86 be
       0.06565704 -0.18324721 0.16847846 -0.2634442
000080 bf db 85 bd 42 21 39 be 23 a7 00 3e f7 01 bb bd
       -0.06536054 -0.18079093 0.12563758 -0.09131234
000090 e2 31 1b 3e cb df 55 3e 0c 2b 04 3e a3 2d 9b 3e
       0.15155748 0.20886151 0.12907046 0.30308256
0000a0 db 6f f8 3d 85 98 35 3e 58 a3 82 3e be fc d8 3c
       0.1213071 0.17733963 0.25515246 0.026487704
0000b0 29 d8 06 3d da 55 3c bd 46 f4 af 3e 36 80 b7 bc
       0.03292099 -0.045980312 0.34366053 -0.022400003
0000c0 86 35 f0 3d ac 1e 98 3e 78 13 0d be bd 24 74 be
       0.11728959 0.297109 -0.13776958 -0.2384214
0000d0 ec 9c a5 be c7 fb 26 3d 4d 12 ad 3e 35 25 6b bd
       -0.32346284 0.040767457 0.33803025 -0.05740853
0000e0 aa 03 29 bd ec 8c f9 3d 3a d3 87 3c 57 0c 3b 3e
       -0.04126326 0.12185082 0.016580213 0.18266426
0000f0 33 3f 1a be c5 8f 8a be 99 02 e1 3c ab 9a 3f be
       -0.15063171 -0.27062812 0.027467059 -0.18711345

cliclayer.2.weight f4 [5, 64]
000000 29 37 8d bc 0a fb 5d bd 3f 9e 2d 3e c2 19 ca 3d
       -0.017238216 -0.054194488 0.16954897 0.09868194
000010 f2 29 18 3e 43 c0 c1 bd e9 9d ec bd 76 bc 92 be
       0.14859751 -0.09460499 -0.115535565 -0.2865941
000020 88 e2 27 3e 53 38 a1 be c8 46 b7 bd 38 da 7a 3c
       0.16395009 -0.31488284 -0.08949047 0.0153108165
000030 98 2a c8 be f2 8c 3b 3e 49 40 ab 3d f4 f4 01 3d
       -0.39094996 0.18315485 0.08361871 0.031727746
000040 6c e3 5e be 5e 1b 56 3e ec 6a 73 3d d7 39 9c bc
       -0.21766442 0.20908877 0.05942814 -0.019070549
000050 b8 f9 18 bd 73 1a 98 bc 07 52 ae bd 80 3b 95 3d
       -0.037347525 -0.0185673 -0.08511739 0.07286739
000060 60 b2 74 3d 4e 60 35 be a2 7e 9f 3c 47 2d 47 3d
       0.059740424 -0.17712519 0.019469563 0.048627164
000070 54 0f c0 3d 8f 1c 47 3d 05 56 3b 3d 26 56 1f bd
       0.093779236 0.04861122 0.04573633 -0.038900517
000080 e2 74 d8 3d 28 f1 f6 3c 32 83 9c bd 34 04 42 bd
       0.105691686 0.03014429 -0.07642211 -0.04736729
000090 b1 7a f2 3c c0 1b a8 bd ac 28 26 3c 16 7e 4d be
       0.02959952 -0.08208418 0.010141533 -0.20067629
0000a0 70 f6 4e be bd 71 b8 3d 93 ca 21 bd 39 d7 79 3d
       -0.20211196 0.09006069 -0.03949983 0.060996268
0000b0 8d 43 91 3d 42 8c ad 3d 13 d3 4a be fd 0e 58 3e
       0.070929624 0.08474018 -0.19807081 0.21099468
0000c0 7b 4f 3b be 2a 3a cb bd 31 a9 08 bc 07 cb 9e 3d
       -0.18292038 -0.09923203 -0.00834112 0.07753568
0000d0 12 cb be 3e 1c bb b5 bd 96 eb 3f be ac 60 29 3c
       0.37264305 -0.08873579 -0.18742213 0.01033799
0000e0 bb 1b 7f bd 4f bc 20 be 18 7c ed 3c 21 fb 11 3d
       -0.062282305 -0.15696834 0.028989837 0.035639886
0000f0 fb 78 56 bd d6 c0 4c 3c 16 73 07 3e b6 1e 0f 3b
       -0.05236147 0.012497148 0.13227496 0.0021838374
000100 be 00 2a 3d d6 df c1 bd 38 58 7e bd 06 8e 12 3d
       0.041504614 -0.094665214 -0.06209585 0.035779975
000110 83 b5 c6 3d ea 0c 5a be df 76 6c bd c8 5e 62 be
       0.09702589 -0.21293989 -0.05773055 -0.22106469
000120 b5 4b 7f 3e a0 15 8e be d7 c9 94 bd 11 2f 92 3c
       0.24931224 -0.27750874 -0.072650604 0.017844709
000130 75 50 bd be 2f 35 f0 3d c3 1e 97 3e e4 b3 20 bd
       -0.36975446 0.11728894 0.29515657 -0.039234057
000140 ef 29 12 be 48 dd 54 3e 80 d4 b6 bd 75 c9 84 3d
       -0.14273809 0.20787537 -0.0892725 0.064837374
000150 cf e6 25 be 7b 7a da bc 85 70 69 3d 9b 94 0f be
       -0.16201328 -0.026669731 0.056992073 -0.14021532
000160 9a 9a 61 3d fd f4 3b be cc af 1e 3d 6c 69 8b bd
       0.05507908 -0.18355174 0.03874187 -0.06807217
000170 fc 2d 04 3e d3 bd ed 3d 57 5c be bd 61 e3 13 3b
       0.12908167 0.11608472 -0.09294956 0.0022565948
000180 a1 4d 09 3e 9a d9 20 3e 23 4d d8 bd ed ae b9 3d
       0.1340852 0.15708008 -0.10561588 0.090665676
000190 a4 51 68 be dc 65 a9 bd 9b d4 65 be ec 11 4c be
       -0.22687393 -0.08271381 -0.22444384 -0.19928712
0001a0 5f a3 9d bd 9a 6a 6e bc ea f1 19 be af 4d f4 3d
       -0.07697176 -0.014551783 -0.15033689 0.119288795
0001b0 a7 fc 0f 3e 03 ee 79 3d 20 c4 4c be 4b 5f 3b 3e
       0.14061223 0.061018 -0.19996691 0.1829807
0001c0 a1 59 08 be e9 4e 9e bd fc 02 a0 3d 43 37 7b 3e
       -0.1331544 -0.07729895 0.07813069 0.245328
0001d0 08 13 b8 3e 54 00 b3 bd 2c 3d a2 bc 2c 94 8c 3d
       0.3595202 -0.08740297 -0.01980456 0.06864199
0001e0 97 4c e5 3c 78 72 84 bd 38 57 01 3d f4 f9 c6 3c
       0.027990622 -0.06467146 0.03157732 0.024289109
0001f0 34 90 1b 3e f2 d2 64 3d db 60 3d 3d f3 9b 57 bc
       0.15191728 0.055865236 0.046234947 -0.01315974
000200 db 1d c4 bd 77 db a1 bc 6f c8 89 3d ef 96 b8 3d
       -0.09576007 -0.01975797 0.06727683 0.09013163
000210 55 b8 79 bd a3 ae 6b bd f7 30 75 bd 64 b4 13 be
       -0.06096681 -0.057539593 -0.05986115 -0.14424282
000220 39 59 c0 3d cd 83 9a be 7b aa ba 3b 5a ed f6 3c
       0.09392018 -0.3017868 0.0056965924 0.030142475
000230 12 ff 09 be a5 16 10 3e 1d 59 3a 3e 19 06 1e be
       -0.13476208 0.14071138 0.18198057 -0.15432014
000240 9b e3 95 bd 7d 75 58 3d 8f a8 07 be 9b 38 b9 3d
       -0.07318803 0.05284642 -0.13247894 0.09044
000250 c1 41 8c bd b2 91 2c be ce 20 f8 3c dc bc 43 bd
       -0.06848479 -0.16852453 0.03028908 -0.047787532
000260 ae 34 a8 3d 67 0d 20 be d9 b6 1d be 28 cc d5 3b
       0.08213173 -0.15630113 -0.15401782 0.0065245815
000270 e3 29 23 3e 14 0e f9 bd 3b 78 74 3d 72 2e 4a bd
       0.15933947 -0.12160888 0.059684973 -0.0493607
000280 b6 b1 30 3e d4 5c 5a 3e e9 59 50 bd 28 6b 3d 3d
       0.17255291 0.21324474 -0.050866995 0.04624477
000290 50 dc 36 be 9f da 0f bd b0 35 af 3c 86 b3 e7 bd
       -0.1785748 -0.035120603 0.021387905 -0.11313538
0002a0 9f 00 b2 3c aa bb 35 3b 44 81 31 3d 3d b3 67 3d
       0.021728812 0.0027730265 0.043336168 0.05656742
0002b0 c3 45 92 bd 7b 02 8b 3d 01 d2 28 be 62 da 4e 3e
       -0.07142212 0.067875825 -0.1648636 0.20200494
0002c0 f2 4a 28 be 64 d8 af 3c 48 ee 7e 3d 25 04 59 3e
       -0.1643484 0.021465488 0.06223896 0.21192987
0002d0 5a 7b 8a 3e 88 55 2c bd ce 9f 13 be 12 53 0e 3d
       0.27047235 -0.042073756 -0.1441643 0.03474719
0002e0 49 2d 37 3e 32 9d 60 bd 2c 4a 9d 3c 07 63 39 3c
       0.17888369 -0.054837413 0.019200407 0.011315114
0002f0 6a cf 96 3d 75 c4 19 3e ff c9 f4 3d d1 1a 85 3d
       0.0736378 0.15016349 0.1195259 0.064992554
000300 d1 41 ed 3c 19 ae ec 3c 6b cf 50 3d 37 3a b1 3d
       0.028962048 0.02889161 0.05097906 0.08653682
000310 cc 32 6b bd e9 6c 0b 3e 3c f2 1a 3e ce 79 ef 3b
       -0.05742149 0.13615765 0.15131468 0.0073082214
000320 f9 f1 3d be 6d 37 11 3e 9e 82 44 3b 2d fb 13 bb
       -0.18549336 0.141813 0.002998508 -0.0022580132
000330 51 f1 48 3e 8c 58 88 bd 34 f8 17 be 05 b4 95 bd
       0.19623305 -0.06657514 -0.14840776 -0.073097266
000340 5b 8e 8d 3d e2 3b b6 3c 94 5b a2 3d 47 6e 82 3d
       0.06911918 0.022245351 0.079276234 0.0636869
000350 7e 80 8d 3d 92 41 9d bc b4 0a a9 3d 4a 14 cd 3d
       0.069092736 -0.019196305 0.082539946 0.100136355
000360 a4 8d 9c 3d f9 d9 ec 3d 2c a1 c8 bd 36 26 af 3c
       0.07644203 0.115650125 -0.09796366 0.021380525
000370 d9 8f 12 be b5 42 e1 3d 59 7f c3 3d 0e 70 ce 3b
       -0.14312686 0.109990515 0.09545774 0.006299979
000380 cc 26 89 bc 7a 92 23 be f7 13 a5 bd 73 6a bb bd
       -0.016742133 -0.15973845 -0.080604486 -0.09151163
000390 ea 12 ba 3d 0d 39 b4 3d 14 f7 21 3c 67 11 3f 3d
       0.09085639 0.08799944 0.009885568 0.046647456
0003a0 3b 52 f5 3d d6 e3 87 3c 34 f1 51 3d 4c 63 e7 3d
       0.11978575 0.016588133 0.05125542 0.11298236
0003b0 28 83 9c bd b7 54 07 be 42 a7 17 3e 11 c0 12 3d
       -0.076422036 -0.1321591 0.14809898 0.0358277
0003c0 d0 51 0c 3e 7e 6d 03 bd 93 f1 42 bd e7 f8 a3 bd
       0.13703084 -0.03208684 -0.047593664 -0.08006459
0003d0 89 c2 5c be 43 b6 e2 bd 93 d5 87 3d a0 1d 85 bc
       -0.21558584 -0.1106992 0.06632533 -0.016249478
0003e0 d9 41 21 bd 92 f8 e6 bc 13 dd a5 bd 14 af 57 3d
       -0.039369438 -0.0281947 -0.08098807 0.052657202
0003f0 40 dd b0 bc 65 e2 aa bd ce 87 c7 3d c3 29 b3 bc
       -0.021589875 -0.083439626 0.097426996 -0.0218705

cliclayer.2.bias f4 [5]
000000 ef 36 22 bd 67 98 ec bd 13 9f 40 bd 2c cb 1e 3d
       -0.03960317 -0.11552506 -0.047026705 0.03876798
000010 c2 d0 91 3b
       0.0044499347

cliconly_fc.0.weight f4 [1, 5]
000000 df af 33 3f ce 52 88 3f c3 b3 35 3f ce 6c 0c bf
       0.70190233 1.065027 0.7097742 -0.5485352
000010 59 19 13 be
       -0.14365138

lastlayer.0.weight f4 [8, 12]
000000 8d e4 db 3d b4 b3 9b be f5 5b 92 3d bd 35 ab 3d
       0.10736952 -0.3041054 0.07146446 0.08359859
000010 2a 6e 67 3e 6d b9 f1 3c 7a 06 8c 3d 07 5c 95 3c
       0.22600618 0.029507363 0.06837173 0.018232359
000020 d5 6f 17 be 09 45 9b 3e 72 80 03 be 19 b7 9e be
       -0.14788754 0.30326107 -0.12841967 -0.30999067
000030 84 af c6 be 5b 0c f9 3d f0 56 3e be cd f1 a1 3e
       -0.38805783 0.1216056 -0.18587852 0.31629792
000040 95 57 53 3e 1d 85 dc 3e 4d 92 5f bd 69 f9 01 be
       0.20638879 0.43070307 -0.054582883 -0.12692799
000050 f1 67 c4 be c2 86 5b 3d b6 d9 5f 3f fb 5a 1f 3f
       -0.3836055 0.053595312 0.87441576 0.622482
000060 34 af 24 be d8 99 5a 3d 3c 02 75 3d bc c4 68 3e
       -0.1608246 0.053369373 0.059816584 0.22731298
000070 b2 cc 0a be 9d 2d ae bd b2 bd 8a be 2c 92 86 3e
       -0.13554648 -0.08504794 -0.2709785 0.26283395
000080 ec 9b ec 3d ad 25 11 be 96 4e da 3d 5f 86 55 3e
       0.11553177 -0.14174528 0.1065952 0.2085204
000090 57 29 97 3d 2b 21 55 3e 6c b2 af be 03 91 e5 3b
       0.07380932 0.20813434 -0.34315813 0.007005812
0000a0 1f 97 0e 3e 54 23 80 3e 9e 30 c9 bd f6 0d 07 3e
       0.13924836 0.25026953 -0.09823726 0.1318892
0000b0 b1 51 4b bd 85 07 27 be 2e 10 76 3e 43 73 24 3e
       -0.049638454 -0.16311462 0.2402961 0.16059594
0000c0 92 86 86 3e 3c 7c 9d b9 65 ac b5 3e b0 b2 03 be
       0.26274544 -0.00030037935 0.3548309 -0.12861133
0000d0 ef e7 38 3d e5 67 c1 bd 9a 33 85 bd f6 df 50 3c
       0.045143064 -0.094436444 -0.06503983 0.012748709
0000e0 00 0d b0 3e 96 ef 1a 3e 37 68 0a bf 04 38 5c be
       0.34384918 0.15130457 -0.5406527 -0.21505743
0000f0 99 76 39 be b1 25 85 bd 52 1c 3f be 84 fa 61 3e
       -0.18111648 -0.0650133 -0.18663147 0.2206822
000100 e9 4a ae 3e 69 54 7a 3e 3e 42 63 bd 91 db 18 be
       0.34041527 0.24446262 -0.055483095 -0.14927508
000110 ad 12 49 3d 6e 39 bd 3b c9 62 68 3e 62 d2 ce 3e
       0.049090076 0.0057746684 0.22693934 0.40394884
000120 54 da 81 be 7d 58 0a 3e 9a ff 9b 3d 96 34 89 3e
       -0.25361884 0.13510318 0.076171115 0.26797932
000130 7d 3a 4e bd 69 26 36 be e7 1a 96 3e 9a d2 53 bd
       -0.050348748 -0.1778809 0.293174 -0.051714517
000140 6c 13 8d be df ee c8 bd 9b 95 77 3e 7e 76 3b be
       -0.2755388 -0.09811186 0.24178164 -0.1830692
000150 d4 35 ec 3c dd b7 93 be 73 36 da bd 0b ee ee bd
       0.028834261 -0.28851214 -0.106549166 -0.11666497
000160 ea 89 b6 bd 27 60 29 be 03 d8 68 be 38 52 90 3d
       -0.08913024 -0.16540585 -0.22738652 0.07046932
000170 ae 47 e3 3d f8 0d f9 3c f6 c8 84 3d 45 66 3c be
       0.11097656 0.030402169 0.06483643 -0.18398388

lastlayer.0.bias f4 [8]
000000 25 87 8d 3e a0 ad cf 3c 26 53 f3 3d 31 0d 25 3d
       0.2764217 0.025351346 0.11881094 0.040295783
000010 e7 fb 29 3f 3d 29 80 3d 07 b2 6f be 4c 58 05 3e
       0.664 0.062578656 -0.23407756 0.13021964

lastlayer.2.weight f4 [1, 8]
000000 1d 5d b1 be aa 1c 9a 3f 37 67 29 3e 88 f8 a5 3e
       -0.34641352 1.2039998 0.1654328 0.32416177
000010 9d cc 73 bf 84 15 0c 3f fc 1b 15 3e 46 f6 fb 3d
       -0.9523409 0.5472033 0.14561456 0.12302832
